>>>>>>>>>>GMF
____________________________________________________________________________________________________
Layer (type)                     Output Shape          Param #     Connected to
====================================================================================================
item_input (InputLayer)          (None, 1)             0
____________________________________________________________________________________________________
user_input (InputLayer)          (None, 1)             0
____________________________________________________________________________________________________
item_embedding (Embedding)       (None, 1, 8)          29648       item_input[0][0]
____________________________________________________________________________________________________
user_embedding (Embedding)       (None, 1, 8)          48320       user_input[0][0]
____________________________________________________________________________________________________
flatten_1 (Flatten)              (None, 8)             0           user_embedding[0][0]
____________________________________________________________________________________________________
flatten_2 (Flatten)              (None, 8)             0           item_embedding[0][0]
____________________________________________________________________________________________________
merge_1 (Merge)                  (None, 8)             0           flatten_1[0][0]
                                                                   flatten_2[0][0]
____________________________________________________________________________________________________
prediction (Dense)               (None, 1)             9           merge_1[0][0]
====================================================================================================
Total params: 77977
____________________________________________________________________________________________________

>>>>> MLP
____________________________________________________________________________________________________
Layer (type)                     Output Shape          Param #     Connected to
====================================================================================================
item_input (InputLayer)          (None, 1)             0
____________________________________________________________________________________________________
user_input (InputLayer)          (None, 1)             0
____________________________________________________________________________________________________
item_embedding (Embedding)       (None, 1, 32)         118592      item_input[0][0]
____________________________________________________________________________________________________
user_embedding (Embedding)       (None, 1, 32)         193280      user_input[0][0]
____________________________________________________________________________________________________
flatten_1 (Flatten)              (None, 32)            0           user_embedding[0][0]
____________________________________________________________________________________________________
flatten_2 (Flatten)              (None, 32)            0           item_embedding[0][0]
____________________________________________________________________________________________________
merge_1 (Merge)                  (None, 64)            0           flatten_1[0][0]
                                                                   flatten_2[0][0]
____________________________________________________________________________________________________
layer1 (Dense)                   (None, 32)            2080        merge_1[0][0]
____________________________________________________________________________________________________
layer2 (Dense)                   (None, 16)            528         layer1[0][0]
____________________________________________________________________________________________________
layer3 (Dense)                   (None, 8)             136         layer2[0][0]
____________________________________________________________________________________________________
prediction (Dense)               (None, 1)             9           layer3[0][0]
====================================================================================================
Total params: 314625
____________________________________________________________________________________________________


>>>>>>>>>>NeuMF

____________________________________________________________________________________________________
Layer (type)                     Output Shape          Param #     Connected to
====================================================================================================
item_input (InputLayer)          (None, 1)             0
____________________________________________________________________________________________________
user_input (InputLayer)          (None, 1)             0
____________________________________________________________________________________________________
mlp_embedding_item (Embedding)   (None, 1, 32)         118592      item_input[0][0]
____________________________________________________________________________________________________
mlp_embedding_user (Embedding)   (None, 1, 32)         193280      user_input[0][0]
____________________________________________________________________________________________________
flatten_3 (Flatten)              (None, 32)            0           mlp_embedding_user[0][0]
____________________________________________________________________________________________________
flatten_4 (Flatten)              (None, 32)            0           mlp_embedding_item[0][0]
____________________________________________________________________________________________________
merge_2 (Merge)                  (None, 64)            0           flatten_3[0][0]
                                                                   flatten_4[0][0]
____________________________________________________________________________________________________
layer1 (Dense)                   (None, 32)            2080        merge_2[0][0]
____________________________________________________________________________________________________
mf_embedding_item (Embedding)    (None, 1, 8)          29648       item_input[0][0]
____________________________________________________________________________________________________
mf_embedding_user (Embedding)    (None, 1, 8)          48320       user_input[0][0]
____________________________________________________________________________________________________
flatten_1 (Flatten)              (None, 8)             0           mf_embedding_user[0][0]
____________________________________________________________________________________________________
flatten_2 (Flatten)              (None, 8)             0           mf_embedding_item[0][0]
____________________________________________________________________________________________________
layer2 (Dense)                   (None, 16)            528         layer1[0][0]
____________________________________________________________________________________________________
layer3 (Dense)                   (None, 8)             136         layer2[0][0]
____________________________________________________________________________________________________
merge_1 (Merge)                  (None, 8)             0           flatten_1[0][0]
                                                                   flatten_2[0][0]
____________________________________________________________________________________________________
merge_3 (Merge)                  (None, 16)            0           merge_1[0][0]
                                                                   layer3[0][0]
____________________________________________________________________________________________________
prediction (Dense)               (None, 1)             17          merge_3[0][0]
====================================================================================================
Total params: 392601
____________________________________________________________________________________________________